Result/dqn.pth (torch_old, 28451 bytes, 6 tensors)

fc1.weight f4 [64, 37]
000000 d3 af 2b 3d a4 b6 bd 3d 88 ec e8 bd 3b 0c 9d be
       0.041915726 0.092633516 -0.1137324 -0.30673394
000010 59 1a 69 be 49 ce f3 3d 52 a3 06 bd 3e dc 6b 3c
       -0.22763957 0.1190458 -0.0328706 0.014395772
000020 e7 71 c5 3d 73 30 ab be a9 5c 4c bd d1 62 e6 bc
       0.09640866 -0.334354 -0.049893055 -0.028123291
000030 de 31 ee bc c8 32 87 be 3d 60 45 3d fc b0 a9 bc
       -0.029076513 -0.2640593 0.048187483 -0.020714276
000040 58 07 14 3d 25 f4 db 3d 7a 14 a0 3d af 49 fa 3d
       0.036139816 0.10739926 0.078164056 0.12221085
000050 92 e6 dc 3d 2b 32 18 3e 49 ad 08 3e f7 15 92 3d
       0.10786165 0.14862888 0.13347353 0.07133096
000060 a7 2d e3 3d 0f 2b e5 bb b0 bb 36 3e 66 3f b0 bd
       0.11092692 -0.0069936584 0.17845035 -0.08605842
000070 dc 58 4e bd f3 1a b5 bb 26 ce bc 3c 63 5f f0 3a
       -0.05037771 -0.0055268942 0.023047518 0.0018338974
000080 88 c4 04 3e 1d 28 2d be 90 11 18 bf b4 b5 b8 bd
       0.12965596 -0.16909833 -0.594018 -0.09019032
000090 66 eb 82 bc c5 e9 ec 3d f1 d1 fd 3d 65 5d 59 3c
       -0.015981387 0.115680255 0.12393559 0.013266896
0000a0 ed 59 b2 3d 5d f2 8e be d0 ae 55 3d 0c e3 a0 bd
       0.08708558 -0.27919284 0.052168667 -0.07855806
0000b0 b1 26 34 be 17 f9 11 bd 38 23 b7 be 25 89 9d 3d
       -0.17592885 -0.03563794 -0.35769057 0.07692174
0000c0 b7 f3 ad bd 33 8d a8 3c 59 2d 34 3e 5c cf 0c 3e
       -0.084937505 0.020575142 0.17595424 0.13750976
0000d0 8e 41 e7 3d 5b b7 a7 3c a0 2a 74 3d 7e 8f d1 bd
       0.112918004 0.020473173 0.059610963 -0.10232447
0000e0 ca 1a 7d bc 25 0b 91 bd c3 e7 ae bd 3b 42 17 be
       -0.015448282 -0.07082204 -0.08540299 -0.14771359
0000f0 8b f9 6a 3d 68 af 87 3d 22 3a d5 bd 59 5b eb bd
       0.05736689 0.06625253 -0.104114786 -0.114920326
000100 2b f0 2b 3e 4a b1 85 3e 8c e8 df 3d da c8 d2 3d
       0.16790836 0.26111823 0.10933027 0.10292216
000110 a0 a3 21 3e f9 69 7a 3b 9d c1 4b 3d 4a 8b cc bb
       0.15785074 0.0038210137 0.04974519 -0.0062421905
000120 f5 2e 7e 3d 72 10 ac 3c 0d e2 54 3e 92 ae 0f 3d
       0.0620565 0.021003935 0.20789357 0.035078593
000130 1a c7 f2 3d cb 38 52 3c ca 1c 81 bd 27 4b e8 be
       0.11854382 0.012830923 -0.06304319 -0.45369837
000140 cc be a6 3d bb 84 9f 3e fd 38 e0 3d e2 e1 e8 be
       0.0814186 0.31155953 0.1094837 -0.45484835
000150 d9 d3 f7 3b 61 93 53 bd 4e 75 8e bd 3d 1b d2 3d
       0.007563096 -0.051654223 -0.06955968 0.102591015
000160 cc e8 0e 3e 20 6a 9b be 99 26 2f 3e 75 59 08 3e
       0.13955992 -0.30354404 0.17104568 0.13315375
000170 7d 97 33 3e 9e e2 0a bd ec a3 3e be 7e 34 31 3d
       0.17538257 -0.033907525 -0.18617219 0.04326295
000180 fc b4 01 bd 07 a9 0d 3e 34 3a 3e 3d ef d4 f5 be
       -0.03166674 0.1383401 0.046442226 -0.48014018
000190 94 b0 89 3e a8 ff 70 3e 7d a4 5d bd d8 d1 93 be
       0.2689253 0.23535025 -0.054111946 -0.28871036
0001a0 74 1c cd be 2f 2d 26 3b ba db 7a 3b 05 f0 78 3d
       -0.4006077 0.0025356521 0.003827794 0.060775775
0001b0 1a bc 2e 3d 63 6d bd 3c b7 01 b5 b9 75 61 99 3d
       0.042659856 0.023123449 -0.00034524288 0.074892916
0001c0 e2 37 9f 3b d8 82 17 3e 50 b0 e4 3d 53 44 3b be
       0.0048589567 0.14796007 0.111664414 -0.18287782
0001d0 74 55 1d be 16 84 9c be 46 ba 81 3e e8 6e dd 3c
       -0.15364629 -0.30569524 0.25337428 0.027030423
0001e0 8a 53 05 bf 6b fa 54 bc 43 57 c5 ba 75 80 8a 3d
       -0.52080595 -0.012999157 -0.0015055913 0.067627825
0001f0 e5 d6 b0 39 80 ba f7 bc 01 bd 0b be 91 0f 6a bd
       0.00033729445 -0.030240297 -0.13646318 -0.05714375
000200 ac 69 03 3d f1 2e 0e 3d 21 35 86 3c 9a 09 af 3c
       0.0320832 0.034712736 0.016382756 0.021366883
000210 05 e4 0f 3b 22 02 96 3c 30 c1 43 3e 1f 68 68 3e
       0.0021955979 0.018311564 0.19116664 0.22695969
000220 19 fa 81 bd dc 18 d2 3b 37 e3 30 3e b4 6f 44 3c
       -0.063465305 0.006411655 0.17274176 0.011989523
000230 1f 79 29 bd cc 93 12 3e 74 59 6d 3e e1 b1 21 3e
       -0.041375276 0.14314193 0.23178655 0.15790512
000240 b6 5e 8e be 41 25 96 bf 02 56 c1 3c 8c 55 13 3c
       -0.27806634 -1.1730119 0.023600582 0.008992564
000250 75 44 f3 bb 6d f2 f8 bd fc a9 63 be 84 40 36 be
       -0.007423932 -0.12155614 -0.22232813 -0.17798048
000260 b5 12 96 b7 28 5b d9 bd 0d b8 46 3e 61 44 8e 3d
       -1.7890105e-05 -0.1061309 0.19406147 0.06946636
000270 33 b8 30 3d af 90 21 be 04 5c d6 3d a7 8d ad bd
       0.043144416 -0.15777849 0.10466769 -0.08474284
000280 f1 2d 11 bc a1 81 c6 be 6c ed 50 bf ba 4c e6 bd
       -0.008861051 -0.38770774 -0.8161228 -0.11245103
000290 91 30 b2 bc 36 2d b9 bd 01 4f f8 3d 47 d3 2c 3e
       -0.021751674 -0.090418264 0.12124444 0.16877471
0002a0 2d 3a 63 3c 90 0c 57 bc 50 67 11 3d b7 ef a7 bd
       0.013868851 -0.013125554 0.035498917 -0.08200019
0002b0 53 53 f1 3d 12 c5 1e be 3f c3 80 3d 25 90 d2 3d
       0.11783471 -0.15504864 0.0628724 0.102814
0002c0 df 0b 86 3d 11 ce 02 be 4d f6 27 3e d5 ad 5d 3d
       0.06545233 -0.1277392 0.1640255 0.054120857
0002d0 4f 6e e5 3b 2d 8f 55 be b6 25 58 be 58 47 90 bd
       0.007001675 -0.20855398 -0.21108136 -0.07044858
0002e0 d4 a7 72 3c 7a 81 00 bc 25 67 36 bd 1d ee ad 3c
       0.014810521 -0.00784337 -0.04453196 0.021231705
0002f0 cc e7 f0 3c 61 75 23 3e ef f2 92 3e 5f 3a b9 be
       0.029407404 0.15962745 0.2870097 -0.36177346
000300 60 1f 60 be d5 2b 84 be 78 4a 9c bf f5 8f d7 bd
       -0.21886969 -0.2581469 -1.2210226 -0.105255045
000310 4e 26 1e bd 0e e9 08 3c 84 2b ea bd 25 84 92 3d
       -0.03861075 0.008356346 -0.11434081 0.07154111
000320 4a f4 a0 3d ba 29 aa 3d e3 ca b2 bd ac 19 28 be
       0.078590944 0.0830874 -0.08730104 -0.16416043
000330 00 6e ac bd 16 20 b6 3d cc 9a 3a bd 4f 05 9d 3d
       -0.08419418 0.08892839 -0.045557782 0.07667028
000340 3e ae 39 3e 69 47 56 3d 12 f0 8b bd bf f0 c6 bd
       0.18132874 0.052314196 -0.06832899 -0.097138874
000350 1d 0f ee 3d 40 5e 6e 3e 92 5d 2f 3e 72 5a f4 bd
       0.116239764 0.23278141 0.17125538 -0.119313136
000360 27 09 3b 3d 92 6d 8c ba 70 28 a6 3e 19 73 1c 3e
       0.045663025 -0.0010713807 0.32452726 0.15278281
000370 28 49 40 bd 68 32 24 bc 3a a7 62 ba 30 5d 8e 3d
       -0.046944767 -0.010021783 -0.00086461345 0.06951368
000380 db c1 f0 bc 1c e9 23 be 40 7c 06 bf ba c8 c1 bd
       -0.029389312 -0.16006893 -0.5253334 -0.09462114
000390 68 67 e4 bc 4c 43 bf bd 60 17 a8 3d 14 93 86 3e
       -0.02788134 -0.09339008 0.082075834 0.26284087
0003a0 ff 17 87 bb ac 9c 2a 3e 70 85 fc 3b d4 7a 4b 3d
       -0.0041227336 0.16661328 0.0077063367 0.049677685
0003b0 df ad 8c 3e 16 12 dd bc f9 06 57 bc e0 8e 72 bd
       0.27476403 -0.026986163 -0.013124221 -0.059218287
0003c0 1e 46 e4 ba e5 54 5e 3e 01 35 c9 bc f2 9b 3a be
       -0.0017415916 0.21712072 -0.024561407 -0.18223551
0003d0 28 c5 c4 3d 74 38 0a bd ca 32 b1 3e e5 7a a2 be
       0.09607917 -0.033745244 0.3460906 -0.31734386
0003e0 ff 8a 6a 3d b7 af 12 bc 1c 7c f7 3c f5 43 e0 3c
       0.057261463 -0.0089530265 0.030210547 0.027376154
0003f0 74 e1 d7 bd dc 2d aa bd 4d 55 83 3d a8 c6 8a 3d
       -0.10541049 -0.08309528 0.06412754 0.06776172

fc1.bias f4 [64]
000000 66 f6 2b 3e 7f bf c6 bc 75 7b 12 be e4 9b 16 bd
       0.16793212 -0.024261234 -0.14304908 -0.036769763
000010 82 67 4d 3e 29 d5 89 bc 61 f8 c7 bd 02 73 51 3d
       0.20059016 -0.016825275 -0.097641714 0.05113507
000020 ca 88 fd 3b 45 22 54 be c0 de e4 3d 12 15 3a 3e
       0.007737254 -0.20716198 0.11175299 0.181721
000030 d2 47 18 3e 11 f2 58 3e c7 44 5c bd bb e5 6d bd
       0.14871147 0.21186091 -0.05377653 -0.058080416
000040 2b 3a 21 3d c1 8c 5d 3d da 9e 49 3d f9 76 3e be
       0.039362114 0.05408931 0.04922376 -0.18600072
000050 fc dc cc bd 0b 68 9d 3c ad 52 3a 3d 52 1c 7f bd
       -0.10003087 0.01921465 0.045489002 -0.062282868
000060 a3 07 08 be 89 3b 90 3d 80 0d b0 bd c3 92 25 be
       -0.13284163 0.070426054 -0.08596325 -0.16169266
000070 54 74 e7 3d b6 22 07 3e df 77 66 bd 30 a3 af bd
       0.11301485 0.13196835 -0.05626666 -0.085760474
000080 de 4f f0 3d c8 1b c9 3c e8 c2 0d be 36 4d a9 3d
       0.117339835 0.02454938 -0.13843882 0.0826668
000090 4e a9 13 bc 7b 38 8b 3b 80 00 c7 3c 3b 80 2d bd
       -0.009012533 0.0042486764 0.02429223 -0.04235862
0000a0 85 a7 e1 bd 5c 99 50 bc af b7 02 be 82 41 3b 3e
       -0.1101828 -0.012731876 -0.12765382 0.18286708
0000b0 b2 b1 4e 3d 2e c3 81 bd db d2 41 bb 28 cc f8 bd
       0.050462432 -0.06336056 -0.0029575143 -0.12148315
0000c0 49 ae 01 be d2 39 2c 3c 3e 62 fa bd 0e aa 94 3d
       -0.12664141 0.010511832 -0.122257695 0.07258998
0000d0 4f 10 e2 bc 8c f4 0f bd 23 4a 1c be 13 1e 2e bc
       -0.027595667 -0.035145327 -0.15262656 -0.010627287
0000e0 7b 28 99 3d 54 48 09 bd 2a c8 c3 bd 8c 3a d5 bd
       0.07478424 -0.033516243 -0.09559663 -0.104115576
0000f0 f6 b9 7e 3c 1a 4e 8b 3c 95 dc e9 3d 8c 0c 9a 3d
       0.015547266 0.017005015 0.11419026 0.075219244

fc2.weight f4 [64, 64]
000000 d5 27 17 bd 80 55 73 bd 36 82 af 3c 95 e9 76 bc
       -0.03690322 -0.05940771 0.021424394 -0.015070339
000010 65 59 c8 3e f2 a6 2e be 72 7e 2c be 1a c0 b7 bd
       0.39130703 -0.17055872 -0.1684511 -0.08972187
000020 3d 78 a1 3e 67 a5 5a 3c b3 29 f9 be 6d be 93 be
       0.31537047 0.013345099 -0.48664626 -0.2885622
000030 0e 7f 1b be 54 62 4d 3c 91 ce e2 bd 0f ee a4 3d
       -0.15185186 0.01253565 -0.11074556 0.080532186
000040 a2 43 6a 3c f0 93 10 bf fa c2 97 bd 67 ea a0 bd
       0.0142983515 -0.56475735 -0.07410236 -0.07857209
000050 08 01 e9 bc 88 3b c6 bd 82 bc f8 bd 53 57 90 bc
       -0.028442875 -0.096793234 -0.1214533 -0.017619764
000060 85 3f ae be d2 7e 1a bd e7 19 20 bd 9c 31 5a be
       -0.34032837 -0.0377186 -0.039087202 -0.21307987
000070 07 29 a1 3d fd d9 cf 3d 18 73 ee 3d ba 77 6c 3e
       0.078691535 0.10149 0.11643046 0.23092547
000080 a7 75 ad bd f1 6f 48 3f 19 f5 4f bc ed dc e9 bd
       -0.08469706 0.7829581 -0.012692713 -0.114190914
000090 b9 79 ba be 22 51 4d 3e 0f df 23 3d 94 25 b5 3c
       -0.36420992 0.20050481 0.040007647 0.022112645
0000a0 36 4c 9f be 15 d8 3d be ee 9e 3c 3e 4c 99 39 3e
       -0.31112832 -0.1853946 0.18420002 0.18124884
0000b0 49 11 7f 3e 43 6b 8b bd 9e 7d 5a 3c 3a b1 4c be
       0.24908938 -0.06807568 0.0133356135 -0.19989482
0000c0 71 4e 2b be a7 99 0b be dc 1d 94 be 7c 4e e9 bd
       -0.16729142 -0.13632832 -0.2892903 -0.11391923
0000d0 59 85 87 3d da ba e6 be be e5 54 be 32 ff 55 bd
       0.06617231 -0.4506443 -0.20790765 -0.052245326
0000e0 d5 8e bd be e0 56 d0 bd 75 a3 80 be 66 e4 95 3e
       -0.37023035 -0.1017282 -0.25124708 0.29275817
0000f0 f0 f5 c0 3c d6 58 8e 3e 53 5e 7e bd a8 d5 e5 be
       0.023554772 0.2780215 -0.062101673 -0.4488957
000100 72 79 64 3d 8f f3 a4 3d 2c b1 0c bf 82 5d 25 3e
       0.05577988 0.080542676 -0.5495784 0.16148952
000110 1e df 4c 3b 7b eb 65 3e 24 d6 56 bb c4 52 98 bd
       0.0031260918 0.2245311 -0.0032781446 -0.07437661
000120 85 12 05 be dd d6 9c bd bd ba cd bd e4 9c b2 3e
       -0.12995346 -0.076581694 -0.10045383 0.34885323
000130 30 4c 80 be 19 56 aa 3d 1b 37 21 3c 1b 06 91 3d
       -0.25058126 0.08317203 0.009839798 0.07081243
000140 06 12 41 3d 8d f9 04 be eb 31 81 bd 5e b8 9c 3d
       0.04713633 -0.12985821 -0.06308349 0.07652353
000150 91 51 28 3d 32 f8 05 bc ef 02 4f 3e 91 64 01 be
       0.041093413 -0.00817685 0.20215963 -0.1263602
000160 12 1e 33 be ef d4 11 3d 3a b7 39 be 3f 21 1b be
       -0.1749194 0.03560346 -0.18136302 -0.15149401
000170 c6 a3 6a 3d 83 c7 56 3e 46 ba bc 3c 61 0e 9a bb
       0.057285093 0.20974545 0.02303804 -0.004701421
000180 f7 89 34 be 50 76 57 be fc e2 87 be f2 a2 be 3d
       -0.17630754 -0.21041226 -0.26540363 0.09308423
000190 7e de 60 3c 16 61 f9 3d 33 08 8a bb 78 2b 3a be
       0.013724921 0.12176721 -0.004212403 -0.18180645
0001a0 10 35 f1 bd 26 da ba bb b7 33 c8 ba a0 c1 94 bd
       -0.11777699 -0.005702275 -0.0015274201 -0.072634935
0001b0 8e 70 c0 bd 7a 96 85 3c f3 56 2b be 3a 9a 93 bd
       -0.09396468 0.016307104 -0.16732387 -0.07207151
0001c0 ba af a2 3c bc cb b7 bd 3a 6e d9 bd c6 9c 3e 3e
       0.019859184 -0.08974406 -0.10616727 0.18614492
0001d0 1d 55 19 be 69 59 0b be d0 ad ba 3d 30 27 2d be
       -0.14973874 -0.13608326 0.09115183 -0.1690948
0001e0 b4 3b f6 bd 13 5f aa be a1 81 5d 3e 93 a6 0f bc
       -0.12023106 -0.3327566 0.21631481 -0.008767742
0001f0 19 e6 32 be 1e 41 47 bd a4 e1 0c 3e 72 40 20 bd
       -0.17470588 -0.048646085 0.1375795 -0.03912396
000200 3a b1 2e be a8 63 1a be 23 93 b1 bd 02 a1 40 be
       -0.17059794 -0.15077078 -0.08670642 -0.1881142
000210 f6 af 1a be e5 86 f3 3c 43 f8 b1 be 43 a1 8f bd
       -0.15106186 0.029727409 -0.3475972 -0.0701318
000220 e5 81 8e bd af a8 62 3b 52 02 16 3f b0 b7 a2 be
       -0.06958369 0.0034585407 0.5859729 -0.31780767
000230 39 2c 13 bd b2 0d e8 3d 3d 41 21 be 42 0c 0e be
       -0.035930846 0.11330737 -0.15747543 -0.13871863
000240 35 c3 80 be d0 95 a9 be 7e c9 2f be 84 9c 94 be
       -0.2514893 -0.3312211 -0.17166707 -0.29025662
000250 d8 3a 85 be d4 48 2c 3e ff 21 55 be e0 df 3d be
       -0.26021457 0.16824657 -0.2081375 -0.18542433
000260 3e 39 ab be 8a 45 88 3d 51 e6 c6 bc 5b 71 0e 3e
       -0.3344211 0.066538885 -0.024279745 0.13910429
000270 a0 db f7 bd 52 ad 5d be 07 8a fd 3d 7c 35 f6 bd
       -0.12102437 -0.21648148 0.12379842 -0.1202192
000280 03 62 1b be 3e a1 a4 bd 07 49 bd 3d 06 22 77 3e
       -0.15174107 -0.08038567 0.092424445 0.24134073
000290 2e ed 9d 3e 59 4a a7 bd 01 a7 c1 3d c5 40 90 be
       0.30845016 -0.081684776 0.094556816 -0.28174415
0002a0 71 e8 32 bd a1 b9 e6 bd 12 00 da bd a3 a8 2d be
       -0.043678705 -0.11265875 -0.10644545 -0.16958861
0002b0 5c bd aa bc ed 37 20 be cd 91 d4 3d e7 24 8d bd
       -0.020842247 -0.15646334 0.10379372 -0.06891804
0002c0 8c b4 69 3c 17 49 b2 bd 72 16 9c 3d 53 12 02 bd
       0.014264237 -0.08705347 0.076214686 -0.031755757
0002d0 a6 e2 08 be a7 66 b1 bd 63 36 dc be aa da 05 bd
       -0.1336771 -0.086621575 -0.43010244 -0.032679237
0002e0 28 0a 7d bb a2 8b dd bd 86 52 fa 3c e4 27 2d bd
       -0.003861079 -0.108176485 0.030556928 -0.04227437
0002f0 c3 0b 2d 3e e0 e4 ab be cc 31 6d bc 25 3d 3e 3d
       0.16899018 -0.33573055 -0.0144772045 0.04644503
000300 1d d6 40 3e 01 e4 bb bd e3 83 02 3e a9 25 b5 be
       0.18831678 -0.09174348 0.12745623 -0.35380295
000310 35 17 c7 bd db b5 d4 bc 74 d8 1e 3e 7c f0 60 be
       -0.09721223 -0.025965622 0.15512258 -0.21966738
000320 48 dc f3 3c 5e 41 a4 3d 79 3b 61 bc a5 23 66 b8
       0.029768124 0.0802028 -0.01374709 -5.486947e-05
000330 7e 0f 20 bd 70 ba 5e 3c a7 25 87 bc 7c ba 21 be
       -0.039077275 0.013594255 -0.016497446 -0.15793794
000340 cf 88 fc 3c aa da 05 3e 46 8c ab 3d d8 06 1f be
       0.030826954 0.13071695 0.083763644 -0.15529954
000350 ce a5 fa 3d 0f 31 74 3d 96 58 20 bd e7 f9 4e be
       0.12238656 0.0596171 -0.039146982 -0.20212518
000360 01 04 e9 bd d7 7a 19 be e2 95 82 bd 3b 9d 16 3e
       -0.11377717 -0.14988266 -0.06376244 0.14708416
000370 f1 7f 81 3e 86 93 87 be c3 0d 85 be 13 53 ac bd
       0.25292924 -0.2647974 -0.25987062 -0.08414283
000380 4d 8e a1 bc 8f a2 46 be 6d 99 74 bc 90 d4 a1 3d
       -0.019721175 -0.19397949 -0.014929158 0.07901871
000390 48 42 e3 bd f1 2e 33 be 5a 34 c1 3c d7 78 9b bd
       -0.110966265 -0.17498375 0.023584533 -0.07591408
0003a0 48 8e f3 bd 08 4d 80 3d 73 f1 21 bc f9 56 09 be
       -0.11892372 0.062646925 -0.009884226 -0.13412084
0003b0 52 46 1f 3a 64 a4 dc b9 df f8 c3 bc d2 89 5b be
       0.0006075847 -0.0004208415 -0.023922382 -0.21439293
0003c0 86 f8 ba be 94 0d 07 3e ca 51 4c be ac c7 ce bd
       -0.36517733 0.13188773 -0.19953075 -0.10096678
0003d0 d9 78 91 3d 6a 8f 90 bd 6b de f0 be 63 2a b6 bd
       0.07103128 -0.07058604 -0.4704469 -0.088948034
0003e0 75 ed 56 be ba 84 2e be bd e6 70 bc 72 d2 da bc
       -0.2098902 -0.17042819 -0.01470345 -0.026711676
0003f0 71 b0 53 be 51 00 9f bb 3e 22 8b bd c2 0a 11 3e
       -0.20672776 -0.0048523326 -0.067936406 0.1416426

fc2.bias f4 [64]
000000 b1 54 c4 bd 10 ab 6e 3c ca 00 b9 3d d7 37 3e 3c
       -0.09586466 0.014567152 0.090333536 0.011609993
000010 01 78 24 3e 96 c7 51 be 3f c5 f5 bb 41 5e 2f 3d
       0.16061403 -0.20486292 -0.00750032 0.042814497
000020 6d 3e 8e 3e 94 33 cd 3e ce b3 14 be e8 15 9e 3d
       0.27782002 0.40078413 -0.14521715 0.07719022
000030 7c b9 26 3e b8 75 93 bd 9b 64 cc 3b b1 0b 3b 3e
       0.16281694 -0.072001874 0.006237579 0.18266179
000040 41 17 0d 3e 10 02 bc bc bb 61 c7 bd 66 2c 29 3e
       0.13778402 -0.022950202 -0.097354375 0.16520843
000050 bd 80 8d 3e 86 fe c7 3e 0b 75 4c be 7b c8 d5 bd
       0.27637282 0.39061373 -0.19966523 -0.10438629
000060 58 7f 90 bd c6 69 89 bd c8 b1 c7 3c 82 2a 7e bb
       -0.07055539 -0.06709628 0.024376765 -0.003878266
000070 c3 95 23 3b 35 59 81 bd 1f c8 a9 3d ad 2a dc ba
       0.002496109 -0.06315843 0.08290123 -0.0016797386
000080 ed 57 fe bc b6 a1 f2 3c 57 10 af 3c 5f 54 82 bd
       -0.031047786 0.029618125 0.021370096 -0.06363749
000090 6c cb e9 bc 74 d8 db bd 2d f0 84 bd ae 19 ad bc
       -0.028539382 -0.107346445 -0.064911224 -0.02113041
0000a0 76 b6 07 be 63 ad fa 3e 0c 49 b8 3e 00 dc 1e bd
       -0.13253197 0.4896041 0.3599323 -0.038784027
0000b0 ff 71 55 3c c2 db 1d be 8d e6 97 3e ce 08 2c be
       0.013027667 -0.15415862 0.29668084 -0.16800234
0000c0 93 17 cd 3d 2f 9c 82 3c 09 ac d9 bb ee 71 da 3e
       0.10014262 0.015943615 -0.0066428226 0.42665046
0000d0 c2 cd 37 3d 4f b1 60 be a4 f6 41 3e de 26 52 be
       0.04487396 -0.21942638 0.18941742 -0.20522639
0000e0 e6 a5 67 be d8 3c 2b be 40 1d 2d 3d f8 7f 67 3d
       -0.22621879 -0.16722429 0.042264223 0.056518525
0000f0 5f 9b 9f 3d cc bb 92 3e 83 d3 0c 3e 4e 1e ee bd
       0.077933066 0.28658903 0.1375256 -0.11626874

fc3.weight f4 [4, 64]
000000 9f 97 ba 3e 9d 10 87 3e 2e 07 11 3f fa a3 c8 3b
       0.36443803 0.26379862 0.5665158 0.006123063
000010 c3 0c 63 3e 41 04 9e be da 55 4d 3e 28 00 bc be
       0.22172837 -0.3086262 0.20052281 -0.3671887
000020 fc 8c 53 3e 71 ef d2 3d 84 f7 f2 bd 18 ff bc bd
       0.2065925 0.10299576 -0.11863616 -0.09228343
000030 d5 9f e0 3d 7b d5 54 3e ea 68 fe 3e 6a fd f5 3d
       0.109679855 0.20784561 0.49689418 0.120112255
000040 be cd f5 3d ad 56 88 3d da 69 89 be f7 8f 26 3e
       0.12002133 0.06657157 -0.2683857 0.16265856
000050 ac 8c e9 3d 3c 5b 4c 3e 8d 36 07 bd c8 41 46 be
       0.11403784 0.19956678 -0.033011008 -0.19361031
000060 28 1c 83 3e 09 6a 46 be b2 3b 7f be da d1 31 3d
       0.2560742 -0.19376387 -0.24925116 0.04341302
000070 d9 3c 02 3f 15 05 5d be 48 7f f7 be d7 bc 9a 3d
       0.50874096 -0.2158397 -0.48339295 0.075555496
000080 1d 47 60 be c6 a0 a1 3e 25 5d c8 3d 37 26 a1 3e
       -0.21902128 0.31567973 0.09783391 0.31474468
000090 1d 17 6c 3e b4 79 46 be d8 ff 20 be 7e be 67 3e
       0.23055692 -0.19382364 -0.15722597 0.22631261
0000a0 5d 04 c0 3d 3e bf 1f 3e 88 7d f0 3d f3 cc d3 bd
       0.09375832 0.15600297 0.11742693 -0.10341825
0000b0 b7 fe 18 bd 89 84 b9 bd 06 96 3e 3e 04 04 d6 3d
       -0.03735229 -0.09058482 0.18611917 0.10449985
0000c0 0d 84 36 3e 1b 1f 6d 3e 13 9e b9 3d 59 5b 05 3e
       0.17823811 0.23156397 0.090633534 0.13023128
0000d0 9c 91 91 3d f6 f5 03 be 9b b7 c4 3d 35 e2 c6 bd
       0.07107851 -0.12886795 0.096053325 -0.09711114
0000e0 4e cf 2b be 39 cd 8a 3b a8 9c 07 3e 40 45 f7 3d
       -0.16778299 0.00423589 0.13243353 0.12073755
0000f0 b3 d5 11 be 64 28 58 3e ac ee e2 3c b9 c6 01 3e
       -0.14241676 0.21109158 0.027701698 0.12673463
000100 e7 c6 1f 3f 6c 20 06 3e d0 06 ed 3e 02 3e 1f 3d
       0.62412876 0.13098305 0.4629426 0.038877495
000110 cb f6 2b 3e 19 48 0a be c9 8f fe 3d 89 a9 01 be
       0.16793363 -0.13504066 0.124297686 -0.12662329
000120 3f 4d eb 3d c8 4c 00 3e 10 ed 1b be 49 5a 0b bd
       0.11489343 0.1252929 -0.15227151 -0.03402165
000130 61 c5 0c 3e a3 f2 27 3e be 7a c6 3e 46 31 10 3e
       0.13747169 0.16401152 0.3876552 0.14081296
000140 f0 61 3b 3d af ac 54 3e 0b b7 41 be d8 68 53 3e
       0.045747697 0.20768999 -0.18917482 0.20645463
000150 39 d8 08 3e 20 88 6c 3e 7c c9 8c bc ca 51 aa bd
       0.13363732 0.23098803 -0.017185919 -0.08316381
000160 ac 87 bc 3e 78 30 aa bc 52 c2 d1 bd db cd e7 be
       0.3682226 -0.020775065 -0.10242142 -0.45274243
000170 c6 1c b7 3e 2f 31 c9 bd c1 ac 95 bd a0 20 17 3e
       0.3576414 -0.09823834 -0.07308341 0.14758539
000180 57 08 b9 bd a8 a5 21 3f dc 5d ff 3d 3a d9 a5 3e
       -0.09034794 0.63143396 0.12469074 0.32392293
000190 57 ad 91 3e 99 95 02 be d4 61 d3 bd 3b 83 c6 3e
       0.2845256 -0.1275238 -0.103213936 0.38771996
0001a0 71 fb 3b 3d 08 37 30 3e 83 94 a9 3d a1 7b 99 3e
       0.04589409 0.17208493 0.082802795 0.29977134
0001b0 f2 69 18 bf 5b db 70 3d f9 85 37 3e 17 da 25 39
       -0.5953666 0.058802944 0.179222 0.00015816871
0001c0 bf 17 86 3e 8c cb 4b 3e 6d d8 5d 3d bc 21 67 3d
       0.26189992 0.19901866 0.054161478 0.056428656
0001d0 4d b7 b9 3d 61 90 4c be 8a d2 90 3d 94 a3 40 bc
       0.09068165 -0.19976951 0.07071407 -0.01175775
0001e0 52 ea 8f be 54 af 28 be e5 b7 af 3c c0 f6 ac 3d
       -0.2810846 -0.16473132 0.021449992 0.08445501
0001f0 00 64 06 be 89 ac 38 3d 1b 96 db 3d 7f 13 00 bc
       -0.13124084 0.045086417 0.1072199 -0.007817148
000200 9e f3 58 3f ae fc 5d 3e 59 bd c2 3e cd 2c 8d bd
       0.8474673 0.21678421 0.38035086 -0.06893311
000210 60 42 3e 3e 8a 8f 25 be e9 67 56 3e 8c 77 0f be
       0.18580008 -0.16168037 0.20938076 -0.14010447
000220 8d f5 28 3e cc 38 04 3e 8b c1 ae bd 5a 53 a8 3e
       0.1649992 0.12912291 -0.08533009 0.32876092
000230 b1 8c 7d 3e f6 d2 82 be 20 0a 83 3e 2a cf 28 3e
       0.24760701 -0.25551575 0.25593662 0.16485277
000240 20 d2 08 3e 68 3e 67 3e 92 c1 0e be c2 fa 59 3d
       0.13361406 0.225824 -0.13941029 0.053217657
000250 76 bb 1b 3d 59 b7 52 3e 9a 37 40 be 07 e7 ca 3d
       0.038020574 0.20577754 -0.1877121 0.09907346
000260 ee 12 2f 3f fb 03 e2 3d 2a 8b d8 bc 37 2e 9b be
       0.6838826 0.110359155 -0.026433546 -0.30308697
000270 81 70 3e 3e 65 3c dc 3d 6b 70 9a be 1a c1 97 bb
       0.18597604 0.10753707 -0.30163893 -0.004631174
000280 67 a4 5a be d2 2e 86 bc 38 36 6b 3e 1b 45 07 3f
       -0.21351777 -0.016379748 0.22969902 0.5283982
000290 ae 2b 41 bd c8 30 30 be f2 29 88 be 54 b6 d7 3b
       -0.047160797 -0.17206109 -0.26594502 0.0065830145
0002a0 dc 3c 72 be 73 15 2a 3e b8 f7 46 3e 34 e7 12 be
       -0.23656029 0.16609745 0.19430435 -0.1434601
0002b0 5e da 95 3b ad 46 c6 3d 97 a8 28 3e 36 21 96 3d
       0.0045731505 0.09681449 0.16470562 0.07330553
0002c0 25 d0 92 3e 7c 89 b5 3c ab 22 ef 3d 4f 58 5c 3e
       0.28674427 0.022160284 0.11676534 0.21518062
0002d0 17 7b 2e 3e 6a fd 66 3e 86 0f f8 3d 9e a4 69 3e
       0.17039143 0.22557607 0.12112336 0.22816703
0002e0 4e df c0 be 7a e5 56 bd dd df 3c 3e 22 5b df 3c
       -0.37670368 -0.05246494 0.18444772 0.027265135
0002f0 e4 a8 e2 be 2d d1 01 3e af 2f 9b be aa 8c 78 be
       -0.44269478 0.1267745 -0.30309817 -0.24272409
000300 4d 5c 11 bd 1b 66 81 3e 30 4f a3 3e b4 83 6d be
       -0.035488416 0.25273213 0.31896353 -0.23194772
000310 a4 cf 2f 3d 36 12 48 be 4e 2f 07 3e 2d df 82 be
       0.04292263 -0.19538197 0.13201639 -0.25560895
000320 e5 1e 41 3e 0c cf 69 3e 06 01 30 be 37 b9 8e be
       0.18859442 0.22832888 -0.1718789 -0.27875683
000330 f8 1c bb 3d ae 7b a9 3e 25 93 0a 3f 39 56 a6 3d
       0.09136385 0.33102173 0.54130775 0.081219144
000340 95 7d 7a 3e 14 b1 ba 3e 0e 18 05 be fe 6a 0c 3e
       0.24461968 0.36463225 -0.12997457 0.1371269
000350 1c 0a b0 3d 69 8a 6b 3e 02 15 0d be fe bc ba 3d
       0.08595678 0.23002018 -0.13777545 0.09118079
000360 5a 3f 3c 3e 2b 3a 17 bf bb 02 b0 bd 6d e0 63 3d
       0.18383542 -0.5907313 -0.08594271 0.05563395
000370 14 4e 92 3e c3 ae bd 3c 44 37 00 bf 1e 35 3e 3e
       0.28575194 0.023154622 -0.5008433 0.1857495
000380 48 43 c3 be 7b ad 46 3f 5a d5 b3 3d 4d d5 80 3d
       -0.3813727 0.7760846 0.08780928 0.06290684
000390 af 70 a3 bd 74 76 82 bd 8d e5 44 3e 05 bf dc 3e
       -0.07980477 -0.063702494 0.19228192 0.43114486
0003a0 85 17 cf be b5 a0 57 3e f2 a2 17 3e 82 e9 46 be
       -0.4044763 0.21057399 0.14808252 -0.19425014
0003b0 9f 26 27 3e 86 df 0b be 8d 78 03 3e 55 77 92 3c
       0.16323327 -0.13659486 0.12838955 0.017879168
0003c0 09 86 58 3e 8c 38 0e 3d 47 5f 8f 3e 3c a5 1b 3e
       0.2114488 0.034721896 0.28002378 0.1519975
0003d0 48 4a 88 3e 6d 8e 11 be b5 c2 ef 3d 36 04 f6 3e
       0.26619172 -0.14214487 0.11707059 0.48050088
0003e0 55 fe 9c be 63 4b 24 be 56 0f 21 bf 1d 15 b4 bc
       -0.3066279 -0.16044383 -0.62914026 -0.021982724
0003f0 f9 67 7e be 4b 3a b9 3d 88 c0 27 3e cf 42 f6 3e
       -0.2484435 0.090443216 0.16382039 0.48097846

fc3.bias f4 [4]
000000 13 2d 98 3e bb 95 8d 3e 64 7a 2e 3e 22 4b 24 3e
       0.2972189 0.27653298 0.17038876 0.16044286
